resources/piano_solo_model_32k.pth (torch_old, 714027 bytes, 24 tensors)

net.cnn1.conv.weight f4 [32, 1, 3, 3]
000000 29 c8 8c be f1 aa ac 3d f9 5a 43 be 94 a8 99 3e
       -0.2749646 0.08431042 -0.19077672 0.30011427
000010 52 fe 9f be bb 4b b3 3d 4d 0b 38 3e b3 37 83 bd
       -0.31248719 0.08754679 0.17973061 -0.06407108
000020 ea 5f f0 bd e0 13 c1 3d 35 c4 f3 3d e1 dd 26 3e
       -0.11737044 0.09427619 0.11902658 0.16295578
000030 e5 20 b1 be 21 62 6e 3e ed c1 1b be 50 56 82 3e
       -0.3459541 0.2327962 -0.15210696 0.25456476
000040 29 c1 a7 3d 5b d6 19 bd eb db 02 3e 36 c1 22 3e
       0.08191139 -0.03755794 0.12779205 0.15894017
000050 1d 03 a7 be cd ce 8a 3e 24 7d a6 3e 57 52 7d be
       -0.32619563 0.271109 0.3251735 -0.24738441
000060 26 b1 5b bd 82 ef 06 be 3a 49 35 be 43 af 8d 3e
       -0.05363574 -0.13177302 -0.17703715 0.27672777
000070 ab a2 34 3d 48 a9 be 3d 2f 61 50 3e fe f8 fa bd
       0.044100445 0.093096316 0.20349573 -0.12254523
000080 46 e3 5d be 82 79 05 3e f8 3f 51 3e 7f a7 ae be
       -0.21668729 0.13034633 0.20434558 -0.34112164
000090 e0 3a fb 3d fe f1 20 3e 91 3c f6 bc c8 81 2a be
       0.12267089 0.15717313 -0.030058177 -0.1665107
0000a0 f1 1f 90 3d ff c9 67 3e e1 4e a3 3b fa 25 08 be
       0.07037342 0.22635649 0.0049837683 -0.13295737
0000b0 b4 63 92 3c f5 8d 8a 3e d1 58 53 3c c2 48 99 3e
       0.017869808 0.2706143 0.012899593 0.29938322
0000c0 01 4f 0f be 1d 82 11 be dc 1b 1a be 9b 0b 5c bd
       -0.13994981 -0.1420979 -0.1504969 -0.053722005
0000d0 f0 34 02 be b5 a1 b9 bd 0a 26 2f be ee 37 b1 be
       -0.12715507 -0.09064046 -0.17104355 -0.34612983
0000e0 d7 76 0f 3e 5b 3a 94 be 9f 38 36 3e fd 5f 93 be
       0.14010178 -0.28950772 0.17795037 -0.2878417
0000f0 6c 9d 22 bd 6d bf 12 be 34 58 25 3e 56 c0 ae be
       -0.03970091 -0.14330836 0.16146928 -0.34131116
000100 e3 7b 80 3e db 22 5a 3e 3d ae a1 bd ad 51 3b 3d
       0.25094518 0.21302359 -0.078945614 0.04573219
000110 74 29 1d be 8e 6b 6c 3e 92 9d 9b 3e 65 d2 89 3e
       -0.15347844 0.23087904 0.30393654 0.2691833
000120 b0 ce 9c 3a 7e 5c 52 3e 95 74 76 3e 7c f8 aa be
       0.0011963453 0.20543095 0.2406791 -0.33392704
000130 ac 6c 73 be f7 7c 94 3d 79 76 94 be 59 ca 87 bd
       -0.23771924 0.07250398 -0.28996637 -0.06630392
000140 9b 2d c4 3d e5 a9 f1 3d 18 f2 7d be 4e d5 a8 3d
       0.09579011 0.11799983 -0.24799383 0.0824381
000150 71 2a 0a be 59 d6 8b be 58 a5 1c 3e 79 1b a5 bd
       -0.13492753 -0.27311972 0.15297449 -0.080618806
000160 bc 11 04 3d 57 e8 82 3e 54 5f ff 3d 2e f0 0c 3d
       0.032243475 0.25567886 0.12469354 0.03440874
000170 db 79 98 3e 1c c0 0f bd 1c c0 68 be b5 00 a5 be
       0.29780468 -0.03509532 -0.22729534 -0.32227102
000180 ae 9c 67 be b7 de a3 3e e6 9f 8d be a7 e4 26 bd
       -0.22618362 0.32005855 -0.27661055 -0.040745404
000190 38 35 9c be 24 7c 53 3c 44 9f 9e be c1 cb 56 3e
       -0.30509353 0.012908015 -0.30980885 0.20976163
0001a0 e7 bd 67 be a9 12 0c 3e 07 84 8c 3e 3d 13 58 3e
       -0.22631036 0.13678993 0.2744448 0.21101089
0001b0 8e de 11 3d da dc 86 3d 6d 57 e3 bd 0d e5 9e be
       0.035612635 0.06585093 -0.111006595 -0.31034127
0001c0 4c 3d 07 3e 96 36 25 3e 83 21 a0 be 9a f7 65 be
       0.13206977 0.16134104 -0.31275567 -0.22457734
0001d0 5e d8 41 3e 9b d1 48 3d 5a ee c7 3b 22 32 88 be
       0.18930194 0.04902802 0.006101412 -0.26600748
0001e0 f0 48 a6 be 5d f1 4d 3e eb 5d 96 3e 2e 9f c8 3d
       -0.32477522 0.20111604 0.2936853 0.09795986
0001f0 40 34 db bd e9 17 4d 3e 2b cc a2 3d 6b 03 20 3e
       -0.10703325 0.20028652 0.07949098 0.15626304
000200 c3 bb 43 bd 1c d2 8f 3d 6e 89 85 be 77 e6 4a 3e
       -0.047786485 0.07022497 -0.26081413 0.19814478
000210 5a 51 aa 3e bf e7 a7 be c6 19 99 be b5 02 06 3e
       0.3326519 -0.32793996 -0.29902476 0.1308697
000220 e1 9e 2d be e4 23 f4 3d b7 95 ab 3e df 15 db 3d
       -0.16955139 0.11920908 0.3351266 0.10697531
000230 76 ee 8f be 0c 8e 1b 3c b6 37 1a 3e 11 b8 9c 3e
       -0.2811162 0.009494316 0.15060315 0.30609182
000240 e0 e9 c7 3e d5 a4 e9 3d 3c 6e 58 3c 5c e9 6c 3e
       0.3904562 0.11408392 0.013209876 0.23135895
000250 13 58 95 be df ca ca bd 7f 21 3f be 9f ba 19 3e
       -0.29168758 -0.09901976 -0.18665121 0.15012597
000260 85 c9 eb 3d 34 41 44 be d3 a0 78 be a4 d9 6d bd
       0.11513046 -0.19165498 -0.242801 -0.058068886
000270 73 fd 39 be fc d3 59 be 5b 4e 10 3e 6a 1f 77 be
       -0.1816309 -0.21272272 0.1409239 -0.24133077
000280 6b 73 45 3e 0a fd 44 3e ff b6 4a be 2a 5c 2b 3e
       0.1928231 0.19237152 -0.1979637 0.16734377
000290 9f 14 b6 3d ee 0a 91 bd 58 95 54 3e b5 8a 0f be
       0.08890652 -0.07082163 0.20760095 -0.14017756
0002a0 b6 0c bb 3d 34 7c 00 3e c6 97 7f be 39 a4 0e be
       0.09133284 0.1254738 -0.2496024 -0.13929833
0002b0 5a f7 6a 3d 8e 8a cc bd 15 53 83 be b7 82 98 3e
       0.0573648 -0.09987365 -0.25649324 0.29787228
0002c0 1b ec a5 bc 6e a0 4c be 2f 7d 78 bd c1 72 13 be
       -0.020254185 -0.19983074 -0.06066626 -0.14399244
0002d0 98 e1 05 3e 16 8a e5 bc 58 00 56 3d 05 9f 34 be
       0.13074338 -0.028019946 0.05224642 -0.17638786
0002e0 dc cb 97 bc c9 7a 90 bd a5 07 99 be 81 83 ce bc
       -0.018529825 -0.070546694 -0.29888645 -0.02520919
0002f0 fb fb 1d 3e a5 99 91 be f7 f7 1a 3e 87 46 8f 3e
       0.15428154 -0.28437534 0.15133654 0.27983496
000300 ae 26 40 3d e9 db 79 3d ce 75 21 be 3c 8e 0d 3e
       0.046911888 0.06100074 -0.15767595 0.1382379
000310 ad 14 57 bc 03 c1 98 be 97 e4 f5 bd a1 f5 e5 3d
       -0.013127488 -0.29834756 -0.12006491 0.112284906
000320 b8 78 a4 3d ed c3 28 be d1 ad 6f be b7 65 3a 3e
       0.08030838 -0.1648099 -0.2340615 0.18202864
000330 50 c1 9a 3d bd 69 6d 3e ca ff 0d be 75 ea 6f 3e
       0.07556403 0.23184867 -0.13867107 0.23429282
000340 47 7c 80 3e 1f ec 30 bd 3a a8 2a be ca d7 2d 3e
       0.25094816 -0.043193933 -0.16665736 0.16976848
000350 e4 de 39 be 66 eb 03 bd ae 95 f8 3c a1 ad 97 be
       -0.18151432 -0.032206915 0.03034481 -0.29624656
000360 84 e4 8d bc e2 29 a0 bd ef 58 32 3e 5d d8 8e 3e
       -0.017320879 -0.078204885 0.17416738 0.27899447
000370 08 8b 8f be 9c 48 0d be 17 e5 a5 bc 41 d5 a3 bd
       -0.2803576 -0.1379723 -0.02025084 -0.07999659
000380 98 94 37 3e e1 7b 78 3e 41 78 b4 be 44 42 88 be
       0.17927778 0.24266006 -0.35247996 -0.26613057
000390 87 7d 0a 3e ff 45 81 be 36 54 0c 3e 05 18 b5 3d
       0.13524447 -0.25248715 0.13703999 0.08842472
0003a0 b1 72 95 3d 73 2f 95 3e 8a 45 97 be 02 b6 65 bd
       0.07297266 0.29137763 -0.29545242 -0.05608178
0003b0 11 47 b8 3c 05 72 a7 be a8 46 0d bd 3a c2 2f 3e
       0.022494825 -0.32704177 -0.03449121 0.17163935
0003c0 be 21 19 3e 3b 19 9e 3e f3 16 58 be d6 79 de 3d
       0.14954278 0.30878624 -0.21102504 0.10863082
0003d0 16 fc 76 be de df 79 3e 5d 4b a8 bc ae b9 c9 bd
       -0.241196 0.24401805 -0.020543749 -0.09849869
0003e0 23 d0 0a bc ff 6d 88 be 1a fc 5b 3e 6e c2 37 bd
       -0.008472475 -0.2664642 0.21482888 -0.044863157
0003f0 ab 8d 39 bd 1a ef 1c 3e 8b 16 b5 be 07 e1 da bd
       -0.04530112 0.15325585 -0.3536876 -0.10687452

net.cnn1.bn.weight f4 [32]
000000 16 d1 83 3f 72 9d 72 3f 14 0a 83 3f 0a b3 78 3f
       1.0298183 0.9477149 1.0237451 0.9714819
000010 ee 31 76 3f 0c 08 8a 3f bf 31 80 3f cb 46 70 3f
       0.96169937 1.0783706 1.0015181 0.9385802
000020 f9 3b 85 3f cd 52 7e 3f 32 13 81 3f 21 6a 81 3f
       1.0408927 0.99345094 1.0083983 1.0110513
000030 14 db 84 3f 8e 45 73 3f 27 d7 7f 3f 32 f3 72 3f
       1.0379357 0.9502801 0.9993767 0.94902337
000040 21 61 7a 3f 86 35 81 3f e0 30 78 3f 54 c8 7f 3f
       0.97804457 1.0094459 0.9694958 0.9991505
000050 d1 9e 84 3f 53 c6 84 3f a5 6e 73 3f 47 62 84 3f
       1.0360967 1.0373024 0.95090705 1.0342492
000060 55 b8 80 3f 1c 6b 7b 3f c3 9f 81 3f 39 5a 70 3f
       1.0056254 0.9821031 1.012688 0.9388767
000070 1c 00 80 3f 9a d3 86 3f 9d 8a 7e 3f 0c ff 7d 3f
       1.0000033 1.0533326 0.9943026 0.99217296

net.cnn1.bn.bias f4 [32]
000000 a7 71 0d bd 66 49 c9 bc 5f 9a 89 bc 3c f9 cb bc
       -0.034532215 -0.024571132 -0.016797243 -0.024899118
000010 12 1c ae ba c5 4f da bb 99 46 e7 bc 7b f9 a5 bc
       -0.0013283512 -0.0066623413 -0.028231906 -0.020260563
000020 f1 3b 92 3c 4c 9f 6e bd 97 fc 0a bd 9d b1 0b ba
       0.017850848 -0.058257386 -0.033932295 -0.00053288956
000030 0d 87 68 bc 4f 2b 87 bc 69 2d 71 bd 8c f1 e2 bc
       -0.014192355 -0.016500143 -0.058881197 -0.02770307
000040 5a 25 41 ba bc 9f f9 bc 3c 46 43 3c b5 d1 b9 bc
       -0.00073679315 -0.030471675 0.011918601 -0.022683004
000050 9b f6 41 bd 62 93 05 bd 14 17 b7 bc 12 ea 9c bc
       -0.047354322 -0.03261126 -0.022349872 -0.019154582
000060 68 53 ba 3b 47 5d 06 3c bd bf 13 bd 87 4a be bc
       0.0056862123 0.00820095 -0.036071528 -0.023228897
000070 67 61 d4 bc cf e0 c3 3c 89 33 c0 bc 0a 66 62 bd
       -0.025925351 0.023910908 -0.023462074 -0.055273093

net.cnn1.bn.running_mean f4 [32]
000000 9a d6 ac be 77 26 e5 3e cb aa 54 bd 0e dd 99 3e
       -0.33757478 0.4475591 -0.051920693 0.30051464
000010 6f dd 99 3e a1 11 0f be a9 0c 63 bf e2 21 51 3f
       0.30051753 -0.13971569 -0.8869119 0.81692326
000020 2b 72 b6 be fb 22 e4 bd 15 06 b4 be fc 36 35 bd
       -0.35633978 -0.111394845 -0.3516089 -0.04424189
000030 2a 9f d3 be ee 8d 2f 3e ed e5 e1 bd ba ec 48 3f
       -0.4133237 0.17143986 -0.11030183 0.78486216
000040 76 cb f5 3e 9f ff 2a bf 0b 63 d1 3c 36 65 1f bf
       0.4800679 -0.66796297 0.025559923 -0.6226381
000050 2c 02 a1 be c8 c1 aa bd 6b e3 c4 3c 94 cf 28 bd
       -0.3144697 -0.08337742 0.024034223 -0.041213587
000060 aa 48 88 3c 2b 00 db 3d 7a d9 99 be 51 13 00 be
       0.016636211 0.106933914 -0.30048734 -0.12507369
000070 b1 ad 12 bf 30 0f 06 bd a5 b1 24 bf 55 ec c9 be
       -0.5729628 -0.032729328 -0.64333564 -0.3943812

net.cnn1.bn.running_var f4 [32]
000000 65 a3 dc 3f 38 aa ee 3f a0 09 9b 40 92 5f 95 40
       1.7237364 1.8645697 4.844925 4.6679163
000010 cc 17 5a 3f 90 b0 1f 3f 6e 89 b4 40 e1 1f c1 40
       0.8519256 0.6237879 5.641776 6.0351415
000020 48 6b 94 40 7e 7e 14 40 5f 66 93 3f 2a 3c 3c 3f
       4.638096 2.3202205 1.1515616 0.73529303
000030 28 dd 61 40 97 bf 7a 3f 3c 76 18 40 05 e4 7e 40
       3.5291233 0.9794859 2.3822165 3.9826672
000040 cf 20 06 40 03 aa b4 40 07 97 95 3f 37 a3 41 40
       2.0957525 5.6457534 1.1686715 3.0255868
000050 9a 04 bd 3f 9f 35 09 3f 91 ed 09 3f 09 df 04 40
       1.4767029 0.53597444 0.5387812 2.076113
000060 9e d2 54 3f 26 db f7 3f 08 dc e2 3f 78 35 3b 3f
       0.83133876 1.9363754 1.7723398 0.7312846
000070 9b ef 3f 40 a6 b4 07 3f 0d ee 46 40 c1 8a fe 3f
       2.9989994 0.5301002 3.1082795 1.9886094

net.cnn2.conv.weight f4 [64, 32, 3, 3]
000000 f5 f6 b0 3c 44 62 91 bd 8b 03 09 3a 6f d8 bf 3b
       0.021602133 -0.07098821 0.0005226663 0.0058546583
000010 e3 41 0c bc 73 2e 5f 3c b0 03 4e bd fa f1 7d bd
       -0.0085606305 0.013621914 -0.050296485 -0.061998345
000020 c4 7a 88 bd 90 e7 9c 3c 3e 47 0d bd 81 ff 09 3d
       -0.06664041 0.019153386 -0.03449177 0.033690933
000030 89 ad 49 bd 72 91 30 3d 2a a7 69 3b ea a5 74 bd
       -0.04923776 0.043107457 0.0035652616 -0.05972854
000040 28 fe 90 bc 47 3b 55 3b 4e 35 48 bc 4b da cb 3b
       -0.017699316 0.0032536553 -0.01221974 0.006221091
000050 8e b2 44 bd 01 c0 6a bd 7f df a2 bc b0 21 00 3c
       -0.048021846 -0.057312015 -0.019881962 0.007820532
000060 10 e5 47 bb 6a 87 2b 3d 9e db 1e 3d 2c c4 0c 3d
       -0.0030501522 0.041877188 0.038783662 0.03436677
000070 33 d3 12 3d 38 c3 95 3b f6 31 9a bc d1 b2 63 bc
       0.035845947 0.004570391 -0.018822651 -0.013897614
000080 9b e6 e8 bc 2a 10 cd bc 26 aa c4 3c 57 2b fa bc
       -0.028430274 -0.025032122 0.024006914 -0.030538244
000090 de 3d 10 3d 84 40 2a 3d 25 12 2a bc 39 3f fc bc
       0.03521525 0.041565433 -0.010380303 -0.030791866
0000a0 29 61 70 3d 98 53 1e 3d 98 99 f0 bc 36 41 25 3c
       0.05868641 0.03865394 -0.029370114 0.010086348
0000b0 ab 5e 34 bd 7f 13 12 bd 41 48 03 3d e7 e7 0a bd
       -0.044035595 -0.035663124 0.03205133 -0.033912566
0000c0 a0 74 35 3d de e4 bb 3b 01 a0 68 bb 4f a8 87 3d
       0.044300675 0.00573407 -0.003549576 0.06623899
0000d0 d1 b7 93 3d d4 91 c4 3d 20 84 20 bd f3 7e 16 bd
       0.072127946 0.09598127 -0.039188504 -0.036742162
0000e0 ff 70 eb 3b ea 84 36 bd 4a be 38 3b 8e 1f 15 3d
       0.007185101 -0.04456035 0.0028189593 0.036407046
0000f0 91 00 50 3c 98 d2 80 3d 67 dc 18 3b ed 67 08 3c
       0.012695448 0.062901676 0.002332473 0.008325559
000100 86 d0 3b ba 7e 4d 89 3c fd 8f 6c bd 1d fa 2f bd
       -0.00071645563 0.016760584 -0.057754505 -0.042963136
000110 5c 65 59 bd 52 c8 2d 3d 4c b0 f7 bc 2c 19 1e 3d
       -0.05307518 0.04242737 -0.030235432 0.038598225
000120 d3 ca 1d bc bd 15 91 bc 71 98 0c bd b0 44 43 3d
       -0.009630877 -0.017710561 -0.034325067 0.047672927
000130 48 a9 f0 3c a0 42 2a bd 29 12 17 3d f3 88 e3 3b
       0.029377595 -0.041567445 0.036882553 0.006943816
000140 c8 a2 34 bd 7a 6a 3c bd 49 b5 06 bd c1 34 9b bc
       -0.044100553 -0.04599998 -0.03288773 -0.018946053
000150 ae 85 5a bd a0 2b 2d bd e4 87 aa bd d6 3a 98 3c
       -0.053350143 -0.042277932 -0.083267 0.018582743
000160 36 87 64 bd 03 21 0f bd c7 f4 a8 3c 39 52 4e bd
       -0.05579301 -0.03494359 0.020624531 -0.050371382
000170 45 71 02 3c 22 7c f2 3b e5 26 ab 3c 38 48 84 bb
       0.007961576 0.0074000517 0.02089257 -0.0040369295
000180 f7 ac 26 3d ce 87 8a bc e8 61 23 bc 40 f7 59 3d
       0.040692296 -0.01691046 -0.009972073 0.05321431
000190 ae af 13 bc 4b 63 5a bd 88 5b d4 bb 17 1e b7 bd
       -0.009014053 -0.05331735 -0.006480638 -0.08941286
0001a0 13 71 a4 bd e3 7b 44 bd 23 46 b6 bc e8 80 d7 bd
       -0.0802938 -0.04796971 -0.02225024 -0.10522634
0001b0 01 d1 76 bc 43 fe f6 bc 9a be a5 3c ef 52 d7 3c
       -0.015064479 -0.030150538 0.020232487 0.026284663
0001c0 e7 0c 03 3d c6 04 8f bd 32 4c 95 3b 03 6f 29 3d
       0.031994727 -0.06983332 0.0045562023 0.041365635
0001d0 0f a8 e6 3c ea c6 e8 bc 3f 65 5b 3d 6c be 7d 3c
       0.028156308 -0.028415162 0.053563353 0.015487295
0001e0 cf 1e 42 bd 06 66 50 bd 2d 22 8a 3c 54 5c 79 bd
       -0.047392663 -0.050878547 0.016862 -0.060879067
0001f0 51 e3 da bc 4a a7 51 bd 83 af 10 bd e4 51 33 bd
       -0.026719721 -0.05118493 -0.03532363 -0.04377927
000200 52 ea a2 3c 02 e2 12 bd 73 33 24 3d 0e 4d 11 bd
       0.019887123 -0.03586007 0.04008813 -0.035473876
000210 e6 4f c6 bc 42 5e 91 bc 1e e1 d1 bc 77 66 54 3d
       -0.02420802 -0.017745141 -0.02562004 0.05185553
000220 56 39 c8 bc 29 dd 75 bc e2 c3 60 3d 72 9b 46 3d
       -0.024441402 -0.015006342 0.05487431 0.048488088
000230 46 31 55 ba 17 22 24 bd 99 bc aa bc 55 3d ce bc
       -0.00081326475 -0.040071573 -0.020841883 -0.02517573
000240 26 c6 27 bc 94 12 3a 3b 4b 2d af 3c eb 9f 9a 3c
       -0.010240113 0.002839242 0.021383902 0.018875083
000250 e1 ac a8 3b a7 25 9d bc a5 2f c9 bc 08 90 6f bd
       0.005147562 -0.019182993 -0.024558851 -0.05848697
000260 cf f6 da 3c 81 43 18 bc 7b de 41 3d 54 17 3f bc
       0.026729016 -0.009293438 0.047331315 -0.011663277
000270 79 aa bf bc d2 d1 fd bb 14 5a 26 3d ff 29 7a bc
       -0.023396717 -0.00774596 0.04061325 -0.015268802
000280 39 1d 03 bd bf e0 19 bd 9d df c6 bb ea 5c d7 3c
       -0.03201029 -0.03756785 -0.0060691372 0.026289422
000290 21 4f be 3c 16 e9 39 3d 17 2d 66 bd 47 4f 58 3d
       0.023231091 0.045388304 -0.056195345 0.05280998
0002a0 63 be 5e 3c 95 d3 45 bc 33 cf 3e 3c f4 98 f8 bc
       0.013595196 -0.012074371 0.01164608 -0.030346371
0002b0 fe 08 1d 3d 91 45 53 bd c9 57 14 bd e4 4a 18 3d
       0.038338654 -0.051580016 -0.03621653 0.037180796
0002c0 98 1a 2a 3d 79 9f df bc 5a 1d 69 bc e8 db ed bc
       0.041529268 -0.027297722 -0.014228189 -0.029035524
0002d0 bc 33 40 3d 1d 5e 5e bd f2 6a f3 3b fe 63 cd b9
       0.046924338 -0.054288972 0.0074285204 -0.00039175147
0002e0 b0 3f 17 bd b6 11 a0 bc d9 44 1c bd 04 8b e4 bc
       -0.03692597 -0.019539695 -0.038151596 -0.027898319
0002f0 db 8e fb 3c 39 c2 1b bb a1 3b 8d bd 77 c2 22 3d
       0.030707767 -0.0023766889 -0.06896139 0.039736237
000300 c4 c7 b4 bc ed 28 95 bd 1f 4b e7 bc fa eb 57 3c
       -0.022067912 -0.072831966 -0.028234063 0.01317882
000310 b0 e0 3a bd a8 b2 df 3c 34 78 f3 bc 62 bc 06 3b
       -0.045624435 0.02730687 -0.029720403 0.0020559062
000320 01 6e 7b bd bc ea ff 3c 86 04 78 bc 25 d4 56 bd
       -0.061384205 0.03123986 -0.015137797 -0.05244841
000330 87 3d 68 bd f8 ad 54 bd c4 04 2c bd 19 d9 df bc
       -0.056699302 -0.051923722 -0.041996732 -0.0273252
000340 7c 6f 14 bd 05 bd e2 3c 1b 42 8c 38 cf ad aa 3c
       -0.036239132 0.027678022 6.688033e-05 0.020834832
000350 9f 04 0f 3d 8b 22 67 39 06 05 ae bc 9d b2 7a bc
       0.034916516 0.00022042745 -0.02124263 -0.015301374
000360 76 ae 7d bd 62 f5 de 3c 50 d8 3d bd 2e 66 16 3c
       -0.061933957 0.027216617 -0.04634887 0.009179635
000370 1f d2 12 3c b7 4a 6d bc 2a 0c 04 3d f8 45 2b 3d
       0.00896123 -0.014483145 0.032238163 0.041814774
000380 af 29 c8 3c c2 68 40 bd 66 42 ef 3c b5 bd 78 3c
       0.024433939 -0.046974905 0.029206466 0.015181948
000390 3d b0 53 3c 32 ad 8b bb f1 56 bd 3b db f6 86 3c
       0.012920436 -0.00426259 0.0057781865 0.016475132
0003a0 30 8b 76 bd 84 d2 1e 3b d5 99 2d 3c 5e cd 91 bd
       -0.060191333 0.0024234364 0.010595758 -0.07119249
0003b0 10 d7 81 bd 83 65 80 bd a4 93 6b 3c 95 4f 1b bd
       -0.06339848 -0.06269362 0.014378462 -0.037917692
0003c0 56 3b 87 3c 60 72 0e bd c4 0c 84 bd fb b6 bc bc
       0.016507786 -0.034777045 -0.06447747 -0.02303647
0003d0 2f e6 ad 3a c9 4b 8c 3c ef 30 26 3d 02 ae 9c bc
       0.0013267453 0.01712598 0.04057401 -0.019125942
0003e0 6d 62 5c 3a ee e7 ee 3c a7 bb 88 3c 4d 22 f8 3b
       0.00084070006 0.029163327 0.016691042 0.0075724483
0003f0 e3 b2 64 bd cd 58 b1 bc 86 e9 4b 3d 7d 69 ef ba
       -0.055834662 -0.021648789 0.049783252 -0.0018265691

net.cnn2.bn.weight f4 [64]
000000 ec 3f 80 3f a7 61 77 3f 08 b9 7d 3f 0f b7 7f 3f
       1.0019507 0.9663338 0.9911046 0.998887
000010 90 a5 82 3f 05 3f 85 3f 1d e8 76 3f 97 45 80 3f
       1.0206776 1.0409857 0.96447927 1.0021237
000020 67 64 7a 3f 7c e4 84 3f 12 dd 73 3f 31 37 85 3f
       0.9780945 1.0382228 0.952592 1.0407468
000030 73 7b 82 3f b5 ea 80 3f 7b 47 82 3f b0 b9 81 3f
       1.0193924 1.0071627 1.0178064 1.0134792
000040 1b e6 83 3f ef 36 80 3f 26 9e 85 3f 62 db 80 3f
       1.0304598 1.0016764 1.0438888 1.006695
000050 fd e6 7f 3f 5d d8 80 3f de be 83 3f 32 33 80 3f
       0.99961835 1.0066029 1.0292623 1.0015624
000060 f9 f3 84 3f a0 9e 82 3f 1a 16 80 3f d3 df 7d 3f
       1.0386955 1.0204659 1.0006745 0.99169654
000070 10 90 7d 3f 59 ca 77 3f 12 b8 78 3f fe cd 82 3f
       0.99047947 0.96793133 0.9715587 1.0219114
000080 78 c1 82 3f f3 01 7f 3f d6 3c 81 3f 43 26 80 3f
       1.0215292 0.9961235 1.0096691 1.0011677
000090 56 83 7c 3f d5 82 83 3f 1f 12 7d 3f f2 2a 7f 3f
       0.986379 1.0274302 0.98855776 0.99674904
0000a0 52 8f 82 3f f8 14 86 3f 09 41 81 3f 43 68 80 3f
       1.0199988 1.0475149 1.0097972 1.0031818
0000b0 9a b5 80 3f ee 38 87 3f 09 b3 84 3f 1f 6b 7e 3f
       1.005542 1.0564249 1.0367137 0.99382204
0000c0 cd 79 7b 3f 5f 93 7d 3f 39 ba 86 3f 0b 23 78 3f
       0.9823273 0.99052995 1.0525581 0.9692847
0000d0 8d 3d 80 3f 7c d7 81 3f 70 2a 79 3f 69 e5 83 3f
       1.0018784 1.0143886 0.9733038 1.0304385
0000e0 91 67 72 3f c0 21 7e 3f d7 33 80 3f 04 e9 7e 3f
       0.9468928 0.9927025 1.001582 0.99574304
0000f0 00 f0 82 3f ba 1d 72 3f 22 d6 83 3f 23 68 80 3f
       1.0229492 0.9457661 1.0299723 1.003178

net.cnn2.bn.bias f4 [64]
000000 f5 6e cb bc a0 01 a5 bc 68 18 e1 bc 39 8f 05 bd
       -0.024833182 -0.020142376 -0.027477458 -0.03260729
000010 44 4c 03 bd 19 41 02 bd d6 d1 9d bc 54 e5 ee bc
       -0.032055154 -0.031800363 -0.019265097 -0.029162087
000020 0f 13 1e bd 13 16 21 bd 03 f6 98 bb 7e 5b 88 bc
       -0.038592394 -0.039327692 -0.0046679988 -0.01664519
000030 63 b7 c9 bc 3a 56 9e bc e2 f9 c8 bc 39 1e 28 bd
       -0.024623578 -0.019328225 -0.024533216 -0.041044448
000040 42 f0 e0 bc 1d 7c c6 bb 61 e7 23 bd c8 1c f1 bb
       -0.027458314 -0.006057276 -0.040015582 -0.0073581673
000050 b8 3e 1a bc 88 5e 03 bd 16 4d c9 bc 0f 22 e9 bc
       -0.009414367 -0.032072574 -0.02457289 -0.028458623
000060 fc a0 a6 39 26 b1 4c bd 6f 5f b5 bc 68 73 42 bd
       0.0003178193 -0.04997363 -0.022140233 -0.04747334
000070 f7 76 34 bd 4b 22 49 bc 77 c4 14 bd 81 97 e7 bc
       -0.044058766 -0.0122762425 -0.036320176 -0.028270485
000080 58 92 3c bc 95 09 8d bc a3 72 45 bd 8f 2c 9a bc
       -0.0115095 -0.017216483 -0.04820503 -0.018820075
000090 ac 5e 5d bc 26 0d 46 bd dd 17 5e bc c5 5e c6 bc
       -0.013511341 -0.048352383 -0.013555494 -0.024215112
0000a0 a1 1a 3f bc cd 5f 6f bd 37 e0 4d bc 1c fc 04 bc
       -0.011664064 -0.058440972 -0.012565664 -0.008116748
0000b0 5f e6 42 bd 31 08 e5 bc 6a d6 91 bc 57 17 d8 bc
       -0.04758298 -0.027958008 -0.017802436 -0.026378317
0000c0 66 d9 e7 bc 94 c3 9e bc bf 24 95 bc cc c2 4e bd
       -0.028301906 -0.019380368 -0.018205998 -0.05047874
0000d0 03 c1 26 bd 26 5f df bc 51 6a 19 bd b4 be bd bc
       -0.040711414 -0.02726705 -0.037454907 -0.023162223
0000e0 b9 d9 1c bd b5 db 07 bd b4 6d d4 bc 61 30 d2 bc
       -0.038293574 -0.033168513 -0.025931217 -0.025657834
0000f0 e1 c9 bd bc 11 bb 63 bd e8 31 04 bc e6 d5 06 bd
       -0.023167552 -0.055598322 -0.008068539 -0.032918833

net.cnn2.bn.running_mean f4 [64]
000000 1e 52 9d be 4f 9f cb 3c cd 7e ee 3d 02 cb c3 3e
       -0.30726713 0.024856238 0.11645279 0.3824082
000010 e8 b8 4b be 29 1b 7f be 99 be fb bd 23 75 cb 3c
       -0.19894755 -0.24912705 -0.12292213 0.024836129
000020 98 a6 ab bc 79 9f 72 be f7 66 1b be 7f df 86 be
       -0.020953462 -0.23693646 -0.15175997 -0.2634239
000030 12 4c 92 be ef be 92 be 66 84 a3 be 0b cd 81 be
       -0.28573662 -0.28661296 -0.3193695 -0.25351748
000040 9e 5f 86 bd 42 1e ea be b0 2f 59 be 0c 7f 22 be
       -0.06561206 -0.4572621 -0.21209598 -0.15868777
000050 aa 4e f6 bd 23 74 a1 be 43 50 a5 bd 32 7e 2b bd
       -0.12026723 -0.31533918 -0.08071949 -0.041868396
000060 20 f4 84 be b8 0b bc be ab 04 dd be c3 84 14 3f
       -0.25967503 -0.3672769 -0.43167624 0.5801508
000070 1e 8b e6 bd e6 74 6f be 5f 86 9c 3d 17 95 4d be
       -0.11257003 -0.23384437 0.07642817 -0.20076405
000080 34 dc 0d bd ed 6b bb be 21 cd 2f 3d 02 a7 37 be
       -0.03463383 -0.36605778 0.042920236 -0.17934802
000090 11 32 f1 bd 49 40 61 be f8 63 87 be 0c 73 6d be
       -0.117771275 -0.21997179 -0.26443458 -0.23188418
0000a0 a1 a7 2a be 57 51 96 be cc ac 59 be 04 81 4f be
       -0.16665508 -0.29358932 -0.21257323 -0.2026406
0000b0 8c b4 ac be ca 8c 5a be c7 9c 93 be 1e 50 c8 be
       -0.33731496 -0.2134277 -0.2883055 -0.39123625
0000c0 37 96 92 be 99 18 c0 bc 79 8a 96 be c5 49 ca be
       -0.2863023 -0.02344923 -0.2940252 -0.39509407
0000d0 61 17 61 bc 4f ea ac ba 8c f4 00 bf c6 a5 37 bc
       -0.013738484 -0.0013192388 -0.5037315 -0.011208957
0000e0 9f 77 c7 bd 38 db c3 be a1 c3 bf be 61 5b 94 3d
       -0.09739613 -0.38253188 -0.3745394 0.07243992
0000f0 96 d4 c5 bd 99 8a 55 bd 3a f2 b3 be 2d c6 b1 be
       -0.09659688 -0.05213413 -0.35145742 -0.3472151

net.cnn2.bn.running_var f4 [64]
000000 61 8f a5 3e 5d b4 25 3e 75 e4 e4 3d 59 a7 b9 3d
       0.32335952 0.16182084 0.11176387 0.09065122
000010 11 76 cb 3d eb 5a 4f 3e 74 c5 88 3e 06 6e 7a 3d
       0.09934629 0.20249526 0.26713145 0.061140083
000020 2c 0b 46 3d a5 07 30 3e c7 33 da 3d 32 1e 75 3e
       0.048350498 0.17190416 0.10654407 0.239373
000030 d8 9d a2 3e 73 f3 8e 3e 59 44 65 3e 8a 50 69 3e
       0.3176105 0.27920112 0.22389354 0.2278463
000040 c7 d8 95 3d 33 5b 02 3e 63 b3 08 3e 3e cb b2 3e
       0.073167376 0.12730102 0.1334968 0.34920686
000050 80 72 19 3e 70 d0 dd 3e dc 74 0e 3e 55 b0 43 3e
       0.14985085 0.43323088 0.13911766 0.19110234
000060 14 a9 1a 3e 32 1e 2b 3e 32 f3 c1 3e 6c 97 a5 3d
       0.1510356 0.16710737 0.37880856 0.08085522
000070 0a 4e bf 3d c6 07 89 3e c9 d2 51 3d e8 68 88 3d
       0.09341057 0.26763743 0.05122641 0.06660634
000080 29 57 83 3d 7a 09 c4 3e c6 e9 36 3d f7 73 04 3e
       0.06413109 0.3828848 0.044656537 0.12934862
000090 15 cc 0b 3e 7e 34 72 3d 4b 2b 05 3e 2c 47 2d 3e
       0.1365207 0.05913209 0.13004796 0.16921681
0000a0 1c 63 27 3e 0d bb e4 3d be 32 94 3e 7a 23 29 3e
       0.16346401 0.111684896 0.28944963 0.1651744
0000b0 eb 75 8d 3e 55 9a 94 3d 05 14 f7 3d 8f c8 25 3e
       0.27629027 0.07255999 0.12064365 0.16189788
0000c0 61 05 ff 3d 7b 47 9c 3e c0 34 2c 3e 37 0e b4 3d
       0.12452198 0.30523285 0.16816998 0.08791774
0000d0 9d 97 0f 3e 2e 77 1c 3d 7b e9 82 3e 43 06 a3 3d
       0.1402268 0.038199596 0.25568756 0.07960179
0000e0 af e6 c9 3e a2 1a c6 3d 2e a6 eb 3d ac 72 30 3e
       0.3943381 0.096730486 0.11506306 0.17231244
0000f0 81 34 4e 3d 5d cc 5e 3e 1e 4e d4 3e 05 00 32 3e
       0.05034304 0.21757646 0.4146585 0.1738282

net.cnn3.conv.weight f4 [64, 64, 3, 3]
000000 ef c4 f9 3c 0a 25 b3 bc 24 7e 19 3d 9b cd f7 bc
       0.030489413 -0.021868248 0.037473813 -0.030249408
000010 a4 89 00 bd 5e 5e 95 3c 39 6c c6 bb c1 8e 3e bd
       -0.031381264 0.018233474 -0.0060553816 -0.04652286
000020 97 77 9c 3c bb b6 3a bd ab 5a a6 3c 64 33 96 3c
       0.019099994 -0.04558442 0.020306906 0.018335052
000030 91 21 1c 3c 84 14 4e bd 24 19 53 3c 86 a7 06 bc
       0.009529487 -0.050312534 0.012884412 -0.008218652
000040 16 e8 3e bc 61 ac 0a bd 44 2b b2 bb c9 9c 05 bd
       -0.011652013 -0.0338558 -0.0054372866 -0.032620225
000050 a0 a4 6e bc 4b 46 34 bc 89 9c 98 bd b2 5e f4 3c
       -0.014565617 -0.011003087 -0.07451732 0.02983031
000060 f8 09 eb bc 27 a2 1e bc 88 2a 4a 3d 83 57 95 3c
       -0.028691277 -0.009682215 0.049356967 0.018230205
000070 2d 7d c0 bc d5 1d e3 bc 94 c2 c6 bc 3f 9f 96 3c
       -0.023497188 -0.027724186 -0.024262704 0.018386481
000080 2e 50 b9 bc 68 6d a0 3b e8 57 3d bc 15 1b 34 bc
       -0.02262124 0.0048958547 -0.011556603 -0.010992785
000090 f8 ff 56 3d 8c 88 93 3c 28 be 37 bc fb 06 13 bc
       0.052490205 0.018009447 -0.01121477 -0.008973832
0000a0 60 6e 9c bc e2 ad c7 bc 8c cb 16 bc 6f 04 57 3d
       -0.0190956 -0.024374906 -0.009203803 0.052494463
0000b0 f1 33 1e 3d b6 7b d2 bb fb 57 34 3d 23 1b e4 3c
       0.038623754 -0.006423439 0.044029217 0.027844971
0000c0 e2 b4 2d bc 50 1d 5f bb ca a5 15 3d 00 cb 12 bb
       -0.010602208 -0.0034044571 0.036535062 -0.002239883
0000d0 b6 c0 1c 3d ec 7e ce 3c 2a 6e 4d bd 54 71 cb bc
       0.03826972 0.025207005 -0.05015389 -0.024834312
0000e0 e7 04 7c 3c 42 a1 e9 bb 1d f0 1f bd 8c c1 1e 3c
       0.015382028 -0.007129819 -0.03904735 0.0096897
0000f0 6c 3e f4 3c cd de 89 bc 52 11 47 bd 18 57 04 bd
       0.029814921 -0.016829873 -0.048600502 -0.03230962
000100 27 0a 0b 3c c2 5e d3 bb 91 23 7d bc 0e ca de 3c
       0.008486307 -0.006450505 -0.015450374 0.027195957
000110 e5 a2 7d 3b e9 e5 0b 3d b0 2d 5c 3c 37 57 1c bd
       0.003870183 0.034154806 0.013438627 -0.038169112
000120 9d d8 1c 3d ad 2d ce 3c 84 ed 0c 3c 9d 38 46 bc
       0.038292516 0.025168264 0.00860155 -0.012098459
000130 75 2e cb 3c c6 67 56 3d 30 a9 a5 bb c5 20 c1 bc
       0.024802426 0.05234506 -0.005055569 -0.023575196
000140 96 f4 d4 3c a1 c9 67 3a 9f c5 a5 3b b7 d7 87 bb
       0.025995534 0.0008841996 0.0050589587 -0.0041455883
000150 30 6a 28 3d 37 ca a9 bc 48 c1 f6 bc 7e d2 68 bc
       0.041116893 -0.020726306 -0.03012146 -0.0142103415
000160 be 2f 1e bd 36 48 30 bc a0 78 3a 3c 71 4b 8d bb
       -0.03861975 -0.010759404 0.011381298 -0.004311972
000170 8f da 4a bd 51 a5 84 bb fd 73 04 bd a2 e2 06 3b
       -0.04952484 -0.0040480276 -0.032337178 0.002058186
000180 77 18 15 3b 11 e7 be 3c b6 4e b9 bb 88 8f 3d bd
       0.0022750178 0.02330354 -0.005655135 -0.04627946
000190 88 38 c2 3c 04 6c 19 3d 41 6c 1e bd 2c 9c e9 bb
       0.023708597 0.037456527 -0.038677458 -0.007129213
0001a0 11 63 14 3d 92 e7 b9 bc 5f c3 3a 3c 3a 1a 6e 3d
       0.03622729 -0.02269343 0.011399119 0.05813048
0001b0 5c 22 04 3d ed db 2d 3d 35 70 e8 3c 11 8f df 3c
       0.03225933 0.042446066 0.028373817 0.027289899
0001c0 8e fd 04 3c 63 47 f2 3c 24 b1 d8 3c 6a e4 c9 3c
       0.008117093 0.029575055 0.026451655 0.02464505
0001d0 36 88 64 bd 18 da d4 bc 97 91 98 bc b6 d9 e3 ba
       -0.055793963 -0.025982901 -0.01862411 -0.0017383609
0001e0 40 bd 7e bd 05 36 91 3c b5 8a a9 bb 93 14 28 bd
       -0.0621922 0.017725954 -0.005174006 -0.041035246
0001f0 a4 af 81 3b af 57 14 3c b0 4b 0e 3d 62 59 46 b9
       0.0039577056 0.0090541085 0.03474015 -0.00018916049
000200 77 2c c3 3b 66 0d 8f 3c db 60 b4 bc 34 ef c7 3a
       0.0059562284 0.017462444 -0.02201884 0.0015253783
000210 22 41 d8 bb 7e c6 06 3d bc bd 0a bd 32 1d c0 3c
       -0.0065995613 0.03290414 -0.03387235 0.023451421
000220 f2 fb 01 bd e7 6a b9 3c 81 3b 14 bd 89 4b 77 bc
       -0.031734414 0.022633983 -0.03618956 -0.015093693
000230 37 e3 18 3d d3 f4 23 3c 91 61 67 bd a2 23 8f 3c
       0.037326064 0.010007101 -0.05648953 0.017473046
000240 4d f5 a8 bc b1 69 89 bd 9f 7d 39 bd 47 72 f7 bc
       -0.020624781 -0.06709612 -0.045285817 -0.030205859
000250 65 50 98 bd c2 43 99 3c 5e 60 bb bc 43 c5 61 bd
       -0.07437209 0.018709067 -0.0228731 -0.055119764
000260 a0 58 0f bd 7b de 37 bd 61 24 85 3c ba 6b 07 bd
       -0.03499663 -0.04488991 0.016252698 -0.03306172
000270 22 5d bc bc 7b e8 4f bd ac db 88 3c a8 9a 74 ba
       -0.022993628 -0.05075882 0.01670631 -0.0009330907
000280 b2 82 50 bd 56 c0 27 bd 98 f8 65 3c 65 ea 40 3d
       -0.05090589 -0.04095491 0.01403632 0.047098536
000290 38 c0 64 bc 6f 70 21 bb 03 23 76 3d 65 0d 31 bd
       -0.013961844 -0.0024633666 0.060091984 -0.043225665
0002a0 7e 7b 26 3c df 14 8c bc 6e 06 a2 b7 73 87 aa bb
       0.010161279 -0.017099796 -1.9314899e-05 -0.005204135
0002b0 f2 80 0a 3d 01 ad 29 3d 5e ff 28 3d 26 f6 db 3c
       0.033814378 0.041424755 0.041259162 0.026850771
0002c0 00 a4 46 bb 89 8e f5 bc 33 29 a2 bc c7 94 bb 3c
       -0.0030310154 -0.029975193 -0.019795036 0.022898091
0002d0 02 d9 ac 3c a2 97 9e bc 59 0b d5 3a 6a ea 3d 3b
       0.021099571 -0.019359414 0.0016253992 0.0028978833
0002e0 cd f9 28 bc ac 52 3b bb 64 b5 3b bd 6b 47 7d 3b
       -0.010313463 -0.0028583212 -0.045827284 0.0038647305
0002f0 38 f6 4a 3d 4d 30 6e bb 67 13 2d bd 68 58 14 bd
       0.04955122 -0.0036344707 -0.04225483 -0.036217123
000300 2f ce 0b 3d 85 bd ca bc 11 bc df 3c d5 ca 0c bb
       0.03413218 -0.024748573 0.027311357 -0.0021483202
000310 0f 1d b6 bc ae c0 3a 3b 3e a9 3c bd 21 3c 31 3d
       -0.022230653 0.0028496194 -0.04605984 0.043270234
000320 58 bf d4 bb 30 48 02 bb 5d 26 bd bc 6a 71 c5 3c
       -0.0064925365 -0.0019879453 -0.023089582 0.024101932
000330 3b 30 ce bb 05 df bb 3c 81 01 44 bd 4e 77 d8 3c
       -0.0062923706 0.022933492 -0.047852997 0.026424076
000340 02 81 38 bd 5b ac 19 3b e8 31 43 3c 88 33 e7 bc
       -0.045044906 0.002344868 0.011913754 -0.028222814
000350 84 1b e9 3c e3 bc 0f 3c 7b 61 a4 3c 77 90 c7 bc
       0.028455503 0.008773061 0.020066014 -0.024360878
000360 7f f9 53 bc d7 44 65 3d cf 7f 4e 3c 49 6c df bc
       -0.0129379025 0.055973854 0.012603714 -0.027273314
000370 0c 16 5d 3c 2a 45 03 bd e3 53 69 bd 4b 37 7e 3b
       0.013494026 -0.032048382 -0.056964766 0.0038790281
000380 b2 fc 08 bd e1 09 6d 3c 07 ad 1e bd f0 9c 9c 3c
       -0.033444114 0.014467687 -0.03873923 0.019117802
000390 bc 82 97 bb cf ed 62 bd 96 6b 7d bc de ac 69 39
       -0.004623739 -0.055402573 -0.015467545 0.0002228501
0003a0 17 c8 2d bd 6a 51 1a 3b c9 6d 0d 3d 74 94 8a bc
       -0.04242715 0.0023547062 0.034528527 -0.016916491
0003b0 e7 92 47 39 ec 05 c3 bc 4a d3 d9 3c c8 79 33 bd
       0.00019032844 -0.023806535 0.026590008 -0.04381731
0003c0 31 dc 00 3d 7e 77 82 3a 7e d8 cb 3c af 06 68 3c
       0.03145999 0.0009953824 0.024883505 0.01416175
0003d0 1e 3c 5c bd ec 8c 28 bd 73 24 3e bd 1d d5 94 ba
       -0.05376827 -0.04115002 -0.04642148 -0.0011355017
0003e0 ff d2 50 3c 61 14 94 bc 70 2b 03 bd 69 bb 85 3c
       0.012745618 -0.018076124 -0.032023847 0.016324716
0003f0 51 3b c5 bc fe fa bd 3c ff 26 9d bc f2 72 5f 3b
       -0.024076136 0.023190971 -0.019183634 0.0034095612

net.cnn3.bn.weight f4 [64]
000000 49 45 81 3f e4 c6 76 3f de 43 80 3f 11 67 7a 3f
       1.0099269 0.96397233 1.0020711 0.97813517
000010 ed d6 7c 3f 39 a5 86 3f e5 d5 80 3f fe c5 7c 3f
       0.9876545 1.0519172 1.0065275 0.9873961
000020 bb 48 80 3f fa a4 7b 3f 9a 00 81 3f 61 61 82 3f
       1.0022196 0.9829861 1.0078309 1.0185968
000030 b8 ad 81 3f 4b 19 7c 3f 8d 5b 7e 3f f5 25 80 3f
       1.013114 0.98476094 0.99358445 1.0011584
000040 df cb 80 3f b8 ef 81 3f c5 da 81 3f 31 e3 81 3f
       1.0062217 1.0151281 1.0144888 1.0147458
000050 e0 8a 82 3f 63 d6 7f 3f f3 e7 75 3f 9f 8d 7e 3f
       1.0198631 0.99936503 0.9605705 0.99434847
000060 85 be 7e 3f e4 aa 7e 3f f0 f7 7b 3f ee 0f 83 3f
       0.9950946 0.9947951 0.984252 1.0239236
000070 ce 40 78 3f 11 dd 7c 3f cf fc 7c 3f fb fc 79 3f
       0.96973884 0.9877482 0.98823255 0.9765164
000080 76 96 7b 3f b3 87 82 3f 32 4e 80 3f 5f dd 7e 3f
       0.9827646 1.0197662 1.0023863 0.99556535
000090 98 b7 7d 3f 46 2a 7c 3f 65 f3 7d 3f 82 c9 78 3f
       0.99108267 0.98502004 0.99199516 0.97182477
0000a0 55 ed 80 3f ee 4e 77 3f 0a 49 80 3f 2e 70 7c 3f
       1.0072428 0.9660481 1.002229 0.9860867
0000b0 8f cb 7e 3f a9 ef 81 3f 61 9c 86 3f 02 7e 7b 3f
       0.99529356 1.0151263 1.0516473 0.9823915
0000c0 ba 77 7e 3f 59 4b 83 3f d7 4b 7e 3f c0 b1 7f 3f
       0.9940144 1.0257369 0.9933447 0.998806
0000d0 c4 39 7f 3f d1 d3 7e 3f af 2f 80 3f 30 84 78 3f
       0.9969752 0.99541956 1.0014552 0.970767
0000e0 07 94 80 3f 03 fe 7e 3f 64 85 81 3f b0 22 7f 3f
       1.0045174 0.9960634 1.0118833 0.99662304
0000f0 94 52 80 3f 38 b9 7d 3f c6 2b 80 3f 26 ac 7c 3f
       1.0025201 0.99110746 1.0013359 0.9870018

net.cnn3.bn.bias f4 [64]
000000 54 8e 93 b9 3c 01 97 bd bc c4 0f bd c0 3b a0 bd
       -0.00028144068 -0.07373282 -0.03509973 -0.078238964
000010 fe 95 52 bd a6 a6 a0 bc 04 46 4a bc b5 a3 18 bd
       -0.051412575 -0.019610714 -0.012345795 -0.0372655
000020 67 ea ae bc 41 e0 8d bc 04 61 05 bd 82 58 ba bc
       -0.021352006 -0.017318847 -0.032563224 -0.022747282
000030 21 94 00 bd 46 89 ab bb 8d bf 03 bd e6 7c 10 bd
       -0.031391267 -0.00523487 -0.0321651 -0.035275362
000040 f8 9e d1 bc 61 91 ae bc a2 fa 82 bc 7a 63 d2 bc
       -0.025588498 -0.021309556 -0.015988652 -0.0256822
000050 86 26 56 bd d9 41 06 bd 85 00 78 bd 6d 34 46 bd
       -0.052282833 -0.03277764 -0.06054737 -0.04838984
000060 9b 96 58 bd 77 5c 8e bb c1 a5 48 bd 9c 92 24 bd
       -0.052878004 -0.0043445188 -0.0489862 -0.04017888
000070 8a 7e 5b bd cb 26 27 bc 9b f1 94 bc c1 70 b0 bc
       -0.053587474 -0.01020212 -0.018181613 -0.02153814
000080 22 14 5b bd 37 e9 4f bd 51 0e 35 bd 4d 24 93 bc
       -0.053485997 -0.05075952 -0.044203106 -0.017961645
000090 65 2c 47 bd 77 a6 84 bc c9 33 22 bd 48 a0 9b bd
       -0.048626322 -0.016192658 -0.039600167 -0.075989306
0000a0 f8 ba 78 bd c5 e5 73 bd cf 76 62 bc c5 e7 6b bd
       -0.060725182 -0.059545297 -0.0138222715 -0.05759408
0000b0 49 6a bf ba 90 7e 72 bd 28 fc 53 bc 7a a7 0c bd
       -0.0014603819 -0.05920273 -0.012938537 -0.034339406
0000c0 1e 9d 80 bd 20 e8 88 bc e6 fb 3c bd 4b 06 46 bd
       -0.06279968 -0.016712248 -0.046138667 -0.048345845
0000d0 f6 0b 3f bd 47 e7 d0 bc f6 6d d2 bc 77 83 86 bd
       -0.046642266 -0.025500907 -0.0256872 -0.06568044
0000e0 5f e3 3c bd ce c4 03 bd 81 b8 0a bd da ae e2 bc
       -0.046115275 -0.03217011 -0.033867363 -0.027671266
0000f0 07 20 f1 bc e5 0a 1a b9 01 28 b9 bc 50 5c ed bc
       -0.029434217 -0.00014690643 -0.022602083 -0.028974682

net.cnn3.bn.running_mean f4 [64]
000000 13 00 9a be 08 31 62 bf 58 bf 0c bf 78 dd 69 bf
       -0.30078182 -0.88356066 -0.5497947 -0.9135356
000010 51 0e 95 be 80 30 87 3e a9 36 8b bc 08 68 98 be
       -0.29112485 0.2640419 -0.016993837 -0.2976687
000020 74 24 47 be e1 d3 de 3d 93 eb 65 be b2 8b b6 3e
       -0.194475 0.108802564 -0.22453146 0.35653454
000030 16 df c4 3e c9 30 dd 3e f5 79 be be db c0 ff be
       0.3845145 0.43201283 -0.3720242 -0.49951825
000040 f1 1a 7f 3e 88 8a 2f be 59 7c 9b 3d 47 96 10 bf
       0.24912621 -0.17142689 0.07592077 -0.56479305
000050 ed cb 12 bf de f7 6f 3e e7 7e 12 bf cc 59 bc ba
       -0.57342416 0.23434398 -0.5722489 -0.0014370023
000060 91 1f 07 3e af d3 fa be 60 e2 93 be 72 0e 5a 3e
       0.13195635 -0.48989627 -0.28883648 0.21294573
000070 d9 f7 47 be 9e b3 74 be 8e cc 8f be 95 ad 4f 3d
       -0.1952814 -0.23896644 -0.2808575 0.05070265
000080 a1 fa 90 be ab cb b9 3e 98 4c c3 3d bf 1e c8 3d
       -0.28316215 0.362882 0.095360935 0.09771489
000090 70 a9 97 be 93 67 bf be a2 ac 0d 3d d0 e9 13 3f
       -0.29621458 -0.37383708 0.034588464 0.57778645
0000a0 73 b5 18 bf 63 3c 3b bf 14 27 dc be 60 76 03 bd
       -0.5965187 -0.7313902 -0.42998564 -0.032095313
0000b0 bd 69 af bd dd 82 b1 be e0 a1 c5 3b 95 44 e4 be
       -0.0856509 -0.34670153 0.00603126 -0.44583574
0000c0 0d bf cf be 95 66 f6 3d 12 e7 8b 3c d1 ea d1 be
       -0.40575448 0.12031285 0.017077956 -0.40999463
0000d0 75 7f 0b 3f b7 68 65 3e 57 e8 16 bf 53 d8 56 be
       0.5449136 0.22403227 -0.5894827 -0.20980959
0000e0 c4 00 35 bf f8 a8 00 bf b6 26 88 be 2d 10 73 3e
       -0.70704293 -0.50257826 -0.26592034 0.2373664
0000f0 8d 0a 9f 3d 21 b2 98 bc f7 a7 d2 bd f1 79 60 3e
       0.07765684 -0.018639626 -0.10285943 0.21921517

net.cnn3.bn.running_var f4 [64]
000000 67 24 f2 3d 16 ab 0b 3e a6 0a 72 3e d0 f8 9c 3d
       0.118233494 0.13639483 0.23636875 0.07664645
000010 54 5e 4d 3d c0 56 83 3d 4d 68 05 3e bf 63 83 3d
       0.050138786 0.064130306 0.13028069 0.064155094
000020 8c 25 8a 3d b0 0f a9 3d 28 08 bd 3d 2a ab c0 3d
       0.06745443 0.08254945 0.09230071 0.09407647
000030 9f 61 ee 3d 95 f4 56 3e 22 39 5d 3e e8 90 1a 3e
       0.116397135 0.20991738 0.21603826 0.1509434
000040 ab 89 db 3d 60 b6 84 3d c3 6d c5 3d b7 b1 f8 3d
       0.107196175 0.06480098 0.09640076 0.121432714
000050 57 05 6b 3e 6b a1 e8 3d 2e cb b8 3d 32 d2 46 3d
       0.22951256 0.11358913 0.090231284 0.0485403
000060 7b 10 93 3d 15 47 12 3e 69 ff bb 3d 15 f1 2c 3d
       0.07180878 0.14284928 0.09179575 0.0422221
000070 34 44 72 3d 4c 27 73 3e 9f 14 24 3e a2 d0 b9 3d
       0.059147075 0.2374546 0.16023491 0.09072997
000080 c1 66 aa 3d df b7 89 3d 7b 92 a9 3d 7d 61 f2 3d
       0.0832038 0.06724524 0.08279892 0.11835001
000090 c0 02 cf 3d ac 4a aa 3d 7f dd 69 3d e9 1c be 3d
       0.101079464 0.08315024 0.057096 0.09282858
0000a0 e7 c2 05 3e de 1e fb 3d 68 01 8e 3d ce f0 52 3d
       0.1306263 0.12261747 0.06933862 0.05149918
0000b0 1a 61 58 3e 68 5c 2f 3d ed a0 6c 3d e8 79 70 3d
       0.21130791 0.042812735 0.05777066 0.05871001
0000c0 13 c8 c8 3d c4 c1 c8 3d 88 22 2d 3d 0a ea 86 3d
       0.09803786 0.09802583 0.04226926 0.06587608
0000d0 4b 8b b2 3d 7b 02 de 3d 27 d0 37 3e 18 16 95 3d
       0.08717974 0.10840317 0.17950498 0.07279605
0000e0 4b f2 a1 3d 41 12 9a 3d 91 83 4f 3d 2f 55 e8 3d
       0.07907542 0.07523013 0.05066258 0.113443725
0000f0 3d fb 74 3d 74 27 0d 3e 76 35 61 3d 83 ed d1 3d
       0.059809912 0.13784581 0.054982625 0.1025038

net.cnn4.conv.weight f4 [32, 64, 3, 3]
000000 c8 d2 86 bc c5 bc bd 3c a4 c4 05 bc 0f 50 a1 bc
       -0.01645793 0.023161301 -0.008164559 -0.019691495
000010 7b 37 79 bc 7f cf fb bc ac 8e d6 bb d2 6d 25 bc
       -0.0152109815 -0.03073859 -0.0065477695 -0.010096984
000020 61 d1 d8 bc ef 8b 46 3c af e1 bc 3b a1 c6 3c 3c
       -0.026467027 0.012118324 0.0057642083 0.011521966
000030 60 0e e3 bc b2 e5 55 3c d9 c1 bc 3c 12 aa 18 3d
       -0.027716815 0.013055252 0.023041653 0.037271567
000040 95 07 2d 3d f8 4c e3 bb c0 4a 8a 3b 2c e9 e6 bb
       0.04224356 -0.0069366656 0.0042203367 -0.007046839
000050 e0 ff 81 bc 1e 92 e1 bc 07 a6 03 bd cc 3f 5a 3c
       -0.015869081 -0.027535494 -0.032140758 0.013320874
000060 f9 da e6 3b ac fb 0e 3b fb 6d 3c 3d 0b 43 60 3d
       0.0070451465 0.0021817489 0.046003323 0.054751437
000070 8a 7c 29 3c 74 75 9c bc 91 03 6d bc 4a 6f ef 3c
       0.010344634 -0.019098975 -0.014466182 0.029227871
000080 fa aa f7 3c 53 a1 83 3d c5 76 5b 3c 82 b1 ba 3a
       0.030232895 0.064272545 0.013395016 0.0014243575
000090 04 f1 a9 3d 71 af 1a 3b ff 50 32 bc dc 36 7a 3d
       0.08297923 0.0023603106 -0.010883569 0.061087474
0000a0 e7 7c 81 3a 76 23 86 bd 82 c1 36 3d 54 51 12 3d
       0.0009879143 -0.065497324 0.044618137 0.03572209
0000b0 bc ed 31 bd f6 b5 fb bc b6 2c 9d bd ef 88 2d 3d
       -0.04343961 -0.030726414 -0.076745436 0.04236692
0000c0 2d bd 9a bd 77 33 98 bc 3d 3e 43 3d 2c e2 4a bd
       -0.07555614 -0.018579228 0.047666777 -0.0495321
0000d0 cf 47 5b bd df 8f 63 3d 19 08 67 bd 13 5d 15 bc
       -0.05353528 0.055557128 -0.056404207 -0.009116429
0000e0 eb c9 8d ba 4e 9b 0f bd cf 0e 62 3c 72 e4 6a bc
       -0.0010817623 -0.03506022 0.013797476 -0.014336692
0000f0 02 61 85 bc 84 b7 b0 bb af 99 d2 bc 09 4a 3c 3d
       -0.016281608 -0.0053929705 -0.025708048 0.045969043
000100 17 ba 19 bd 1f c9 6f 3b f9 3d f0 bc 29 75 61 3c
       -0.037530985 0.0036588383 -0.029326426 0.013760843
000110 95 48 0d 3c 68 75 c9 bb 93 24 b4 bb 7c 0d 1c 3b
       0.008623262 -0.006148029 -0.005497524 0.0023811748
000120 3f 24 da 3c f0 02 30 bd 6e b7 aa 3b a9 0b 42 bd
       0.026628612 -0.04297155 0.005209855 -0.0473744
000130 7d 51 50 bc d8 8c 2c bc 1f 4c f4 3b 2a 95 c7 b9
       -0.012714741 -0.010531627 0.0074553634 -0.00038067374
000140 70 18 ca bb dd e7 50 3c d2 6b 4e bb d0 2b 1c bb
       -0.006167464 0.012750593 -0.0031497371 -0.0023829825
000150 72 37 07 3d bd e6 c1 3a 17 40 8d bc 68 55 88 bc
       0.03301186 0.0014793497 -0.017242474 -0.016642287
000160 01 a2 71 bd e0 4d aa ba 6f e1 63 bc 59 f7 79 3c
       -0.05899239 -0.0012993179 -0.013908728 0.015256726
000170 3f 8d 9f 3b c4 b2 06 3d 22 6f 6e 3d 59 8f b5 3b
       0.004869133 0.032885328 0.058211453 0.00554077
000180 4e 1c ae 3c 13 61 9e 3c ad 2e 96 bc e0 7a a4 bc
       0.021253731 0.019333398 -0.018332804 -0.020078123
000190 b5 b2 f4 3a 39 ba 12 bd 59 3d e5 3c 41 ba ad 3c
       0.0018668982 -0.035822127 0.027983354 0.021206977
0001a0 28 01 97 bc e9 84 48 3d ef 0a 26 bc d3 ba 1b 3d
       -0.018433169 0.048954878 -0.010134443 0.038019966
0001b0 0e 94 d8 ba 92 a4 cf ba 19 a1 ae 3c c3 71 2d 3b
       -0.0016523616 -0.0015841892 0.021317052 0.0026465512
0001c0 ec 6a 12 3d 86 7f e6 bb df 50 95 3a 5b a4 16 3d
       0.0357465 -0.007034245 0.0011391899 0.036777835
0001d0 21 f5 93 3c 43 4c 20 bd 24 66 24 bd 15 93 4b bb
       0.018061223 -0.03913523 -0.04013647 -0.003106301
0001e0 2d 20 d3 bc 06 b0 d4 bc 65 80 22 3c 21 9a f8 3c
       -0.025772179 -0.02596284 0.009918307 0.030346932
0001f0 78 51 00 bd cd 31 c9 bc 5f b5 57 bc 16 11 4d 3d
       -0.031327695 -0.02455988 -0.013165801 0.050065123
000200 e4 d5 c8 bb ca ad 59 bc f7 90 95 bb 52 23 41 bd
       -0.0061290134 -0.013286063 -0.0045644003 -0.047152825
000210 e8 41 2a 3d 3e f6 e5 bc 3f 4e b3 3c fb 0f 38 3c
       0.04156676 -0.028071519 0.021887897 0.011234279
000220 c5 0e ae 3b 95 8f a4 3c 85 48 99 bb 45 3a 57 bd
       0.0053118193 0.020087996 -0.0046778345 -0.052545805
000230 11 11 da 3b e8 d1 fb 3c a6 a8 3e bd 25 bb 4e bc
       0.0066548665 0.03073974 -0.046547554 -0.012617861
000240 12 83 18 bd 76 72 9e bc 47 2c fb 3c 88 9f 72 bc
       -0.037234373 -0.019341689 0.030660762 -0.014808543
000250 86 37 ba 3b 98 77 83 3c ec f1 fa 3c 15 61 94 3c
       0.0056828884 0.016048238 0.030632935 0.018112699
000260 98 58 d8 3c e5 e4 56 3c 1f de b2 bc d1 78 3b bc
       0.026409432 0.013116096 -0.021834431 -0.011442379
000270 40 83 ed 3c 2c ea ef bc 8f 4f ea bc c3 4b 81 bc
       0.028993249 -0.029286467 -0.02860239 -0.015783196
000280 9f 66 19 3c 81 9b f9 bb c9 fa b4 bc fa 57 de bc
       0.009362846 -0.0076174145 -0.02209224 -0.02714156
000290 e1 da 2b bd 86 96 81 bc c6 80 f6 3c fb 0c 3c bc
       -0.041956786 -0.015818845 0.0300907 -0.011477704
0002a0 73 5b 98 bc 57 05 57 bc 67 b2 37 3c fc b2 64 bc
       -0.018598294 -0.013123832 0.011211968 -0.013958689
0002b0 ac c5 14 bd 9c b0 0c bd 89 5b 13 bd d0 cd 1d bc
       -0.036321327 -0.034348115 -0.035975967 -0.009631589
0002c0 03 d9 c6 3c d6 0e 13 3b 1f 8c 26 bd 0c 7c 20 bd
       0.024273401 0.0022439263 -0.040660974 -0.0391808
0002d0 da 63 fb 3c 1f 04 a8 3c 71 ce f3 3c 7d 48 a5 3c
       0.030687261 0.020509778 0.029761525 0.020176167
0002e0 d8 8e 1e bd 10 b5 c9 bc af c6 37 3d a2 d0 04 bd
       -0.038710445 -0.02462247 0.044867214 -0.03242553
0002f0 df d2 d1 bc d6 4c b3 3c c5 55 c1 bc a0 15 ad bc
       -0.025613246 0.021887224 -0.023600468 -0.021128476
000300 34 f5 a6 3c bc 7a fb bc 19 65 17 bd 1f 77 8d 3c
       0.020380594 -0.030698173 -0.03696165 0.017268715
000310 6a cf 15 3c 61 3c 90 3b 68 ca 1d 3d ae a1 05 bb
       0.00914369 0.004401729 0.038523108 -0.0020390558
000320 09 e2 b7 bc 0c 48 09 3d ae eb a9 3c fa 97 cb bc
       -0.02244665 0.033515975 0.020742264 -0.024852742
000330 21 f0 06 bd 9f 1c 6f 3d 5b dc 0d bd 58 7c fa bc
       -0.03294385 0.058376905 -0.034633975 -0.03057687
000340 58 87 b2 3c 75 cb 73 bb 26 c8 8b bc f1 22 df bc
       0.021793053 -0.0037200127 -0.017063212 -0.027238341
000350 e8 ec 38 3d 8f 59 be 3c f8 9a db bb a9 1e 02 3d
       0.045147806 0.023236064 -0.0067018233 0.03176752
000360 9d 41 a0 3b a8 3e 4e bb be 0e 58 bb ea 31 0b 3d
       0.004890634 -0.0031470452 -0.0032967771 0.03398315
000370 53 8d c4 bc 8f fd a6 3b 74 52 9d 3b 49 87 c1 3c
       -0.02399317 0.0050961445 0.004801089 0.02362408
000380 f4 22 1d bc 26 37 06 bc 95 ce e0 3a f8 78 c9 3c
       -0.009590853 -0.008191859 0.001715141 0.024593815
000390 8e 35 07 3c ec 57 1b 3d 0c 7a 27 3b 2c 92 65 bc
       0.0082525145 0.037925646 0.0025554923 -0.014011901
0003a0 bb 69 f9 bc f3 3a 1d 3c 0a 14 86 bc f6 e6 b3 3c
       -0.030445924 0.009596574 -0.016366977 0.021960717
0003b0 63 92 fd 3b 50 d0 9e bb e8 b5 02 3c d0 58 90 3c
       0.007738398 -0.00484661 0.00797794 0.017620474
0003c0 b5 a9 88 bc 9a fc 0c 3d 0d 15 be 3c 26 b8 25 3d
       -0.016682485 0.034420587 0.023203397 0.04045882
0003d0 52 ba 77 bc b4 af 86 bc eb 74 6a bc ae 96 e7 bb
       -0.015120106 -0.016441204 -0.014310102 -0.007067523
0003e0 dd 34 0e bd 74 de 82 3d 3b e5 37 bd 9a 6a 15 bd
       -0.034718383 0.06390086 -0.044896346 -0.036478616
0003f0 cd dc 7a 3c 16 7c e3 3c d4 ad a8 3c 34 85 b9 3c
       0.015311432 0.02776913 0.0205907 0.022646524

net.cnn4.bn.weight f4 [32]
000000 98 cb 83 3f e5 fa 80 3f c1 10 85 3f b9 1f 84 3f
       1.0296507 1.0076567 1.0395738 1.0322181
000010 21 66 81 3f a0 73 81 3f 46 a9 80 3f ed f5 80 3f
       1.0109292 1.0113411 1.0051658 1.007505
000020 13 be 82 3f 92 64 81 3f 42 50 81 3f 2e 2d 82 3f
       1.0214256 1.0108817 1.0102618 1.0170038
000030 24 ca 80 3f a8 35 86 3f 41 a4 80 3f 7c ef 81 3f
       1.0061688 1.0485125 1.0050126 1.015121
000040 34 67 80 3f 8a b7 82 3f 1b 1e 82 3f c4 22 80 3f
       1.0031495 1.0212262 1.0165437 1.001061
000050 73 f7 80 3f 0a 46 81 3f b5 2f 81 3f d2 d2 80 3f
       1.0075516 1.0099499 1.0092684 1.0064337
000060 43 14 80 3f d5 f9 7d 3f 8f 24 81 3f 81 0f 82 3f
       1.0006183 0.9920934 1.0089282 1.0160981
000070 ac 0e 83 3f 05 7d 80 3f e5 14 80 3f 96 31 84 3f
       1.0238853 1.0038153 1.0006377 1.0327632

net.cnn4.bn.bias f4 [32]
000000 aa d2 34 bc 7d f7 4d bc 80 a6 19 bc 50 3d 7e ba
       -0.011036554 -0.012571213 -0.009378076 -0.00096984673
000010 06 bf 1d 3a 2f d8 3e bc 83 2b 97 bb 29 65 19 bc
       0.00060175394 -0.011648222 -0.0046133413 -0.009362497
000020 19 ff a5 bc 7e a1 3c 3b 3f 7a 92 bc ef ef 8d bc
       -0.020263242 0.002878278 -0.017880557 -0.017326323
000030 76 62 09 bc ea db 38 3c af 5f 32 bc 75 59 2a bc
       -0.008385291 0.0112829 -0.010887071 -0.010397305
000040 b5 3b de ba c2 8f 5d bc dd bd 3d bc e6 d8 0b bc
       -0.001695505 -0.013523044 -0.011580911 -0.008535599
000050 5a d4 29 bc 2d 60 4c bc a5 64 34 bc 19 ee cf bc
       -0.01036557 -0.012474102 -0.011010324 -0.025382088
000060 c0 65 17 bc 46 e7 ad bc 43 0d 90 bc 13 c7 88 bb
       -0.009240568 -0.021228444 -0.017584449 -0.004174122
000070 0b 6c cf bc 99 e2 5b 3a e8 e4 8d bc f3 77 91 bc
       -0.025320074 0.00083879527 -0.017321065 -0.017757392

net.cnn4.bn.running_mean f4 [32]
000000 c3 b0 90 be bc c5 a5 be fc 3f b8 3e 9c ef c0 3d
       -0.28259858 -0.32377422 0.35986316 0.09420702
000010 70 a3 b1 be f2 dc d6 bb 40 c5 0f bf 02 66 6f 3e
       -0.34695005 -0.0065571005 -0.56160355 0.23378757
000020 30 e2 71 3e f7 9e c6 be 98 99 97 3e 31 2d 04 3e
       0.2362144 -0.38793156 0.2960937 0.12907864
000030 2a 4b 45 3d 63 92 8e 3e 54 5c 99 3e d3 ed 8c 3d
       0.048167385 0.2784606 0.29953253 0.06881299
000040 b3 2e fe bd f3 85 ca 3e 24 0d da bc b2 ed ad bd
       -0.12411251 0.3955532 -0.026617594 -0.084926024
000050 04 d7 22 3e fd f6 d2 be a2 5f a7 be 67 14 af be
       0.15902334 -0.41204062 -0.3269015 -0.34195253
000060 4f 65 63 3c 3f 65 fa 3e 71 5f 1d 3e be c2 17 bf
       0.013879134 0.4890537 0.1536844 -0.5928153
000070 16 28 58 bd 4c d5 9b be f7 35 5f 3d 21 be 52 bd
       -0.052772604 -0.3043617 0.054494824 -0.051450852

net.cnn4.bn.running_var f4 [32]
000000 aa 5a 7f 3d 0d d6 d4 3d 18 2e a3 3e ff 62 be 3d
       0.062342323 0.103923894 0.31871104 0.09296226
000010 2d f1 fd 3e 44 73 ab 3d 7c 2c dd 3e ac c5 8c 3e
       0.49598065 0.083715945 0.43198 0.27494562
000020 7f fb 26 3e 72 86 bf 3e e4 17 38 3e de 89 9c 3e
       0.16306876 0.3740726 0.17977864 0.30573934
000030 be 34 42 3e fa 24 35 3e ac b2 bb 3e 81 d2 59 3e
       0.18965432 0.17689887 0.36659753 0.21271707
000040 4c e1 3a 3f 4b 4e 83 3e 26 08 23 3e 37 fc 69 3e
       0.73000026 0.2564567 0.15921077 0.22850119
000050 39 00 6f 3e ae 79 1d 3e 9c e1 12 3e 0d 83 4c 3e
       0.23339929 0.15378448 0.14343876 0.19971867
000060 d9 34 9d 3e 13 5a fd 3e 6f 5d b1 3e b6 f1 af 3d
       0.30704382 0.49482784 0.34641597 0.085910246
000070 a4 a4 6b 3e fd c2 ec 3e 2f 73 2a 3e 09 ab 0b 3e
       0.23012024 0.46242514 0.16645502 0.13639463
